Model: "efficientpose"
__________________________________________________________________________________________________
Layer (type)                    Output Shape         Param #     Connected to                     
==================================================================================================
input_2 (InputLayer)            [(None, 512, 512, 3) 0                                            
__________________________________________________________________________________________________
stem_conv (Conv2D)              (None, 256, 256, 32) 864         input_2[0][0]                    
__________________________________________________________________________________________________
stem_bn (BatchNormalization)    (None, 256, 256, 32) 128         stem_conv[0][0]                  
__________________________________________________________________________________________________
stem_activation (Activation)    (None, 256, 256, 32) 0           stem_bn[0][0]                    
__________________________________________________________________________________________________
block1a_dwconv (DepthwiseConv2D (None, 256, 256, 32) 288         stem_activation[0][0]            
__________________________________________________________________________________________________
block1a_bn (BatchNormalization) (None, 256, 256, 32) 128         block1a_dwconv[0][0]             
__________________________________________________________________________________________________
block1a_activation (Activation) (None, 256, 256, 32) 0           block1a_bn[0][0]                 
__________________________________________________________________________________________________
block1a_se_squeeze (GlobalAvera (None, 32)           0           block1a_activation[0][0]         
__________________________________________________________________________________________________
block1a_se_reshape (Reshape)    (None, 1, 1, 32)     0           block1a_se_squeeze[0][0]         
__________________________________________________________________________________________________
block1a_se_reduce (Conv2D)      (None, 1, 1, 8)      264         block1a_se_reshape[0][0]         
__________________________________________________________________________________________________
block1a_se_expand (Conv2D)      (None, 1, 1, 32)     288         block1a_se_reduce[0][0]          
__________________________________________________________________________________________________
block1a_se_excite (Multiply)    (None, 256, 256, 32) 0           block1a_activation[0][0]         
                                                                 block1a_se_expand[0][0]          
__________________________________________________________________________________________________
block1a_project_conv (Conv2D)   (None, 256, 256, 16) 512         block1a_se_excite[0][0]          
__________________________________________________________________________________________________
block1a_project_bn (BatchNormal (None, 256, 256, 16) 64          block1a_project_conv[0][0]       
__________________________________________________________________________________________________
block2a_expand_conv (Conv2D)    (None, 256, 256, 96) 1536        block1a_project_bn[0][0]         
__________________________________________________________________________________________________
block2a_expand_bn (BatchNormali (None, 256, 256, 96) 384         block2a_expand_conv[0][0]        
__________________________________________________________________________________________________
block2a_expand_activation (Acti (None, 256, 256, 96) 0           block2a_expand_bn[0][0]          
__________________________________________________________________________________________________
block2a_dwconv (DepthwiseConv2D (None, 128, 128, 96) 864         block2a_expand_activation[0][0]  
__________________________________________________________________________________________________
block2a_bn (BatchNormalization) (None, 128, 128, 96) 384         block2a_dwconv[0][0]             
__________________________________________________________________________________________________
block2a_activation (Activation) (None, 128, 128, 96) 0           block2a_bn[0][0]                 
__________________________________________________________________________________________________
block2a_se_squeeze (GlobalAvera (None, 96)           0           block2a_activation[0][0]         
__________________________________________________________________________________________________
block2a_se_reshape (Reshape)    (None, 1, 1, 96)     0           block2a_se_squeeze[0][0]         
__________________________________________________________________________________________________
block2a_se_reduce (Conv2D)      (None, 1, 1, 4)      388         block2a_se_reshape[0][0]         
__________________________________________________________________________________________________
block2a_se_expand (Conv2D)      (None, 1, 1, 96)     480         block2a_se_reduce[0][0]          
__________________________________________________________________________________________________
block2a_se_excite (Multiply)    (None, 128, 128, 96) 0           block2a_activation[0][0]         
                                                                 block2a_se_expand[0][0]          
__________________________________________________________________________________________________
block2a_project_conv (Conv2D)   (None, 128, 128, 24) 2304        block2a_se_excite[0][0]          
__________________________________________________________________________________________________
block2a_project_bn (BatchNormal (None, 128, 128, 24) 96          block2a_project_conv[0][0]       
__________________________________________________________________________________________________
block2b_expand_conv (Conv2D)    (None, 128, 128, 144 3456        block2a_project_bn[0][0]         
__________________________________________________________________________________________________
block2b_expand_bn (BatchNormali (None, 128, 128, 144 576         block2b_expand_conv[0][0]        
…
block2b_dwconv (DepthwiseConv2D (None, 128, 128, 144 1296        block2b_expand_activation[0][0]  
__________________________________________________________________________________________________
block2b_bn (BatchNormalization) (None, 128, 128, 144 576         block2b_dwconv[0][0]             
__________________________________________________________________________________________________
block2b_activation (Activation) (None, 128, 128, 144 0           block2b_bn[0][0]                 
__________________________________________________________________________________________________
block2b_se_squeeze (GlobalAvera (None, 144)          0           block2b_activation[0][0]         
__________________________________________________________________________________________________
block2b_se_reshape (Reshape)    (None, 1, 1, 144)    0           block2b_se_squeeze[0][0]         
__________________________________________________________________________________________________
block2b_se_reduce (Conv2D)      (None, 1, 1, 6)      870         block2b_se_reshape[0][0]         
__________________________________________________________________________________________________
block2b_se_expand (Conv2D)      (None, 1, 1, 144)    1008        block2b_se_reduce[0][0]          
__________________________________________________________________________________________________
block2b_se_excite (Multiply)    (None, 128, 128, 144 0           block2b_activation[0][0]         
                                                                 block2b_se_expand[0][0]          
__________________________________________________________________________________________________
block2b_project_conv (Conv2D)   (None, 128, 128, 24) 3456        block2b_se_excite[0][0]          
__________________________________________________________________________________________________
block2b_project_bn (BatchNormal (None, 128, 128, 24) 96          block2b_project_conv[0][0]       
__________________________________________________________________________________________________
block2b_drop (FixedDropout)     (None, 128, 128, 24) 0           block2b_project_bn[0][0]         
__________________________________________________________________________________________________
block2b_add (Add)               (None, 128, 128, 24) 0           block2b_drop[0][0]               
                                                                 block2a_project_bn[0][0]         
__________________________________________________________________________________________________
block3a_expand_conv (Conv2D)    (None, 128, 128, 144 3456        block2b_add[0][0]                
__________________________________________________________________________________________________
block3a_expand_bn (BatchNormali (None, 128, 128, 144 576         block3a_expand_conv[0][0]        
__________________________________________________________________________________________________
block3a_expand_activation (Acti (None, 128, 128, 144 0           block3a_expand_bn[0][0]          
__________________________________________________________________________________________________
block3a_dwconv (DepthwiseConv2D (None, 64, 64, 144)  3600        block3a_expand_activation[0][0]  
__________________________________________________________________________________________________
block3a_bn (BatchNormalization) (None, 64, 64, 144)  576         block3a_dwconv[0][0]             
__________________________________________________________________________________________________
block3a_activation (Activation) (None, 64, 64, 144)  0           block3a_bn[0][0]                 
__________________________________________________________________________________________________
block3a_se_squeeze (GlobalAvera (None, 144)          0           block3a_activation[0][0]         
__________________________________________________________________________________________________
block3a_se_reshape (Reshape)    (None, 1, 1, 144)    0           block3a_se_squeeze[0][0]         
__________________________________________________________________________________________________
block3a_se_reduce (Conv2D)      (None, 1, 1, 6)      870         block3a_se_reshape[0][0]         
__________________________________________________________________________________________________
block3a_se_expand (Conv2D)      (None, 1, 1, 144)    1008        block3a_se_reduce[0][0]          
__________________________________________________________________________________________________
block3a_se_excite (Multiply)    (None, 64, 64, 144)  0           block3a_activation[0][0]         
                                                                 block3a_se_expand[0][0]          
__________________________________________________________________________________________________
block3a_project_conv (Conv2D)   (None, 64, 64, 40)   5760        block3a_se_excite[0][0]          
__________________________________________________________________________________________________
block3a_project_bn (BatchNormal (None, 64, 64, 40)   160         block3a_project_conv[0][0]       
__________________________________________________________________________________________________
block3b_expand_conv (Conv2D)    (None, 64, 64, 240)  9600        block3a_project_bn[0][0]         
__________________________________________________________________________________________________
block3b_expand_bn (BatchNormali (None, 64, 64, 240)  960         block3b_expand_conv[0][0]        
__________________________________________________________________________________________________
block3b_expand_activation (Acti (None, 64, 64, 240)  0           block3b_expand_bn[0][0]          
__________________________________________________________________________________________________
block3b_dwconv (DepthwiseConv2D (None, 64, 64, 240)  6000        block3b_expand_activation[0][0]  
__________________________________________________________________________________________________
block3b_bn (BatchNormalization) (None, 64, 64, 240)  960         block3b_dwconv[0][0]             
__________________________________________________________________________________________________
block3b_activation (Activation) (None, 64, 64, 240)  0           block3b_bn[0][0]                 
__________________________________________________________________________________________________
block3b_se_squeeze (GlobalAvera (None, 240)          0           block3b_activation[0][0]         
__________________________________________________________________________________________________
block3b_se_reshape (Reshape)    (None, 1, 1, 240)    0           block3b_se_squeeze[0][0]         
__________________________________________________________________________________________________
block3b_se_reduce (Conv2D)      (None, 1, 1, 10)     2410        block3b_se_reshape[0][0]         
__________________________________________________________________________________________________
block3b_se_expand (Conv2D)      (None, 1, 1, 240)    2640        block3b_se_reduce[0][0]          
__________________________________________________________________________________________________
block3b_se_excite (Multiply)    (None, 64, 64, 240)  0           block3b_activation[0][0]         
                                                                 block3b_se_expand[0][0]          
__________________________________________________________________________________________________
block3b_project_conv (Conv2D)   (None, 64, 64, 40)   9600        block3b_se_excite[0][0]          
__________________________________________________________________________________________________
block3b_project_bn (BatchNormal (None, 64, 64, 40)   160         block3b_project_conv[0][0]       
__________________________________________________________________________________________________
block3b_drop (FixedDropout)     (None, 64, 64, 40)   0           block3b_project_bn[0][0]         
__________________________________________________________________________________________________
block3b_add (Add)               (None, 64, 64, 40)   0           block3b_drop[0][0]               
                                                                 block3a_project_bn[0][0]         
__________________________________________________________________________________________________
block4a_expand_conv (Conv2D)    (None, 64, 64, 240)  9600        block3b_add[0][0]                
__________________________________________________________________________________________________
block4a_expand_bn (BatchNormali (None, 64, 64, 240)  960         block4a_expand_conv[0][0]        
__________________________________________________________________________________________________
block4a_expand_activation (Acti (None, 64, 64, 240)  0           block4a_expand_bn[0][0]          
__________________________________________________________________________________________________
block4a_dwconv (DepthwiseConv2D (None, 32, 32, 240)  2160        block4a_expand_activation[0][0]  
__________________________________________________________________________________________________
block4a_bn (BatchNormalization) (None, 32, 32, 240)  960         block4a_dwconv[0][0]             
__________________________________________________________________________________________________
block4a_activation (Activation) (None, 32, 32, 240)  0           block4a_bn[0][0]                 
__________________________________________________________________________________________________
block4a_se_squeeze (GlobalAvera (None, 240)          0           block4a_activation[0][0]         
__________________________________________________________________________________________________
block4a_se_reshape (Reshape)    (None, 1, 1, 240)    0           block4a_se_squeeze[0][0]         
__________________________________________________________________________________________________
block4a_se_reduce (Conv2D)      (None, 1, 1, 10)     2410        block4a_se_reshape[0][0]         
__________________________________________________________________________________________________
block4a_se_expand (Conv2D)      (None, 1, 1, 240)    2640        block4a_se_reduce[0][0]          
__________________________________________________________________________________________________
block4a_se_excite (Multiply)    (None, 32, 32, 240)  0           block4a_activation[0][0]         
                                                                 block4a_se_expand[0][0]          
__________________________________________________________________________________________________
block4a_project_conv (Conv2D)   (None, 32, 32, 80)   19200       block4a_se_excite[0][0]          
__________________________________________________________________________________________________
block4a_project_bn (BatchNormal (None, 32, 32, 80)   320         block4a_project_conv[0][0]       
__________________________________________________________________________________________________
block4b_expand_conv (Conv2D)    (None, 32, 32, 480)  38400       block4a_project_bn[0][0]         
__________________________________________________________________________________________________
block4b_expand_bn (BatchNormali (None, 32, 32, 480)  1920        block4b_expand_conv[0][0]        
__________________________________________________________________________________________________
block4b_expand_activation (Acti (None, 32, 32, 480)  0           block4b_expand_bn[0][0]          
__________________________________________________________________________________________________
block4b_dwconv (DepthwiseConv2D (None, 32, 32, 480)  4320        block4b_expand_activation[0][0]  
__________________________________________________________________________________________________
block4b_bn (BatchNormalization) (None, 32, 32, 480)  1920        block4b_dwconv[0][0]             
__________________________________________________________________________________________________
block4b_activation (Activation) (None, 32, 32, 480)  0           block4b_bn[0][0]                 
__________________________________________________________________________________________________
block4b_se_squeeze (GlobalAvera (None, 480)          0           block4b_activation[0][0]         
__________________________________________________________________________________________________
block4b_se_reshape (Reshape)    (None, 1, 1, 480)    0           block4b_se_squeeze[0][0]         
__________________________________________________________________________________________________
block4b_se_reduce (Conv2D)      (None, 1, 1, 20)     9620        block4b_se_reshape[0][0]         
__________________________________________________________________________________________________
block4b_se_expand (Conv2D)      (None, 1, 1, 480)    10080       block4b_se_reduce[0][0]          
__________________________________________________________________________________________________
block4b_se_excite (Multiply)    (None, 32, 32, 480)  0           block4b_activation[0][0]         
                                                                 block4b_se_expand[0][0]          
__________________________________________________________________________________________________
block4b_project_conv (Conv2D)   (None, 32, 32, 80)   38400       block4b_se_excite[0][0]          
__________________________________________________________________________________________________
block4b_project_bn (BatchNormal (None, 32, 32, 80)   320         block4b_project_conv[0][0]       
__________________________________________________________________________________________________
block4b_drop (FixedDropout)     (None, 32, 32, 80)   0           block4b_project_bn[0][0]         
__________________________________________________________________________________________________
block4b_add (Add)               (None, 32, 32, 80)   0           block4b_drop[0][0]               
                                                                 block4a_project_bn[0][0]         
__________________________________________________________________________________________________
block4c_expand_conv (Conv2D)    (None, 32, 32, 480)  38400       block4b_add[0][0]                
__________________________________________________________________________________________________
block4c_expand_bn (BatchNormali (None, 32, 32, 480)  1920        block4c_expand_conv[0][0]        
__________________________________________________________________________________________________
block4c_expand_activation (Acti (None, 32, 32, 480)  0           block4c_expand_bn[0][0]          
__________________________________________________________________________________________________
block4c_dwconv (DepthwiseConv2D (None, 32, 32, 480)  4320        block4c_expand_activation[0][0]  
__________________________________________________________________________________________________
block4c_bn (BatchNormalization) (None, 32, 32, 480)  1920        block4c_dwconv[0][0]             
__________________________________________________________________________________________________
block4c_activation (Activation) (None, 32, 32, 480)  0           block4c_bn[0][0]                 
__________________________________________________________________________________________________
block4c_se_squeeze (GlobalAvera (None, 480)          0           block4c_activation[0][0]         
__________________________________________________________________________________________________
block4c_se_reshape (Reshape)    (None, 1, 1, 480)    0           block4c_se_squeeze[0][0]         
__________________________________________________________________________________________________
block4c_se_reduce (Conv2D)      (None, 1, 1, 20)     9620        block4c_se_reshape[0][0]         
__________________________________________________________________________________________________
block4c_se_expand (Conv2D)      (None, 1, 1, 480)    10080       block4c_se_reduce[0][0]          
__________________________________________________________________________________________________
block4c_se_excite (Multiply)    (None, 32, 32, 480)  0           block4c_activation[0][0]         
                                                                 block4c_se_expand[0][0]          
__________________________________________________________________________________________________
block4c_project_conv (Conv2D)   (None, 32, 32, 80)   38400       block4c_se_excite[0][0]          
__________________________________________________________________________________________________
block4c_project_bn (BatchNormal (None, 32, 32, 80)   320         block4c_project_conv[0][0]       
__________________________________________________________________________________________________
block4c_drop (FixedDropout)     (None, 32, 32, 80)   0           block4c_project_bn[0][0]         
__________________________________________________________________________________________________
block4c_add (Add)               (None, 32, 32, 80)   0           block4c_drop[0][0]               
                                                                 block4b_add[0][0]                
__________________________________________________________________________________________________
block5a_expand_conv (Conv2D)    (None, 32, 32, 480)  38400       block4c_add[0][0]                
__________________________________________________________________________________________________
block5a_expand_bn (BatchNormali (None, 32, 32, 480)  1920        block5a_expand_conv[0][0]        
__________________________________________________________________________________________________
block5a_expand_activation (Acti (None, 32, 32, 480)  0           block5a_expand_bn[0][0]          
__________________________________________________________________________________________________
block5a_dwconv (DepthwiseConv2D (None, 32, 32, 480)  12000       block5a_expand_activation[0][0]  
__________________________________________________________________________________________________
block5a_bn (BatchNormalization) (None, 32, 32, 480)  1920        block5a_dwconv[0][0]             
__________________________________________________________________________________________________
block5a_activation (Activation) (None, 32, 32, 480)  0           block5a_bn[0][0]                 
__________________________________________________________________________________________________
block5a_se_squeeze (GlobalAvera (None, 480)          0           block5a_activation[0][0]         
__________________________________________________________________________________________________
block5a_se_reshape (Reshape)    (None, 1, 1, 480)    0           block5a_se_squeeze[0][0]         
__________________________________________________________________________________________________
block5a_se_reduce (Conv2D)      (None, 1, 1, 20)     9620        block5a_se_reshape[0][0]         
__________________________________________________________________________________________________
block5a_se_expand (Conv2D)      (None, 1, 1, 480)    10080       block5a_se_reduce[0][0]          
__________________________________________________________________________________________________
block5a_se_excite (Multiply)    (None, 32, 32, 480)  0           block5a_activation[0][0]         
                                                                 block5a_se_expand[0][0]          
__________________________________________________________________________________________________
block5a_project_conv (Conv2D)   (None, 32, 32, 112)  53760       block5a_se_excite[0][0]          
__________________________________________________________________________________________________
block5a_project_bn (BatchNormal (None, 32, 32, 112)  448         block5a_project_conv[0][0]       
__________________________________________________________________________________________________
block5b_expand_conv (Conv2D)    (None, 32, 32, 672)  75264       block5a_project_bn[0][0]         
__________________________________________________________________________________________________
block5b_expand_bn (BatchNormali (None, 32, 32, 672)  2688        block5b_expand_conv[0][0]        
__________________________________________________________________________________________________
block5b_expand_activation (Acti (None, 32, 32, 672)  0           block5b_expand_bn[0][0]          
__________________________________________________________________________________________________
block5b_dwconv (DepthwiseConv2D (None, 32, 32, 672)  16800       block5b_expand_activation[0][0]  
__________________________________________________________________________________________________
block5b_bn (BatchNormalization) (None, 32, 32, 672)  2688        block5b_dwconv[0][0]             
__________________________________________________________________________________________________
block5b_activation (Activation) (None, 32, 32, 672)  0           block5b_bn[0][0]                 
__________________________________________________________________________________________________
block5b_se_squeeze (GlobalAvera (None, 672)          0           block5b_activation[0][0]         
__________________________________________________________________________________________________
block5b_se_reshape (Reshape)    (None, 1, 1, 672)    0           block5b_se_squeeze[0][0]         
__________________________________________________________________________________________________
block5b_se_reduce (Conv2D)      (None, 1, 1, 28)     18844       block5b_se_reshape[0][0]         
__________________________________________________________________________________________________
block5b_se_expand (Conv2D)      (None, 1, 1, 672)    19488       block5b_se_reduce[0][0]          
__________________________________________________________________________________________________
block5b_se_excite (Multiply)    (None, 32, 32, 672)  0           block5b_activation[0][0]         
                                                                 block5b_se_expand[0][0]          
__________________________________________________________________________________________________
block5b_project_conv (Conv2D)   (None, 32, 32, 112)  75264       block5b_se_excite[0][0]          
__________________________________________________________________________________________________
block5b_project_bn (BatchNormal (None, 32, 32, 112)  448         block5b_project_conv[0][0]       
__________________________________________________________________________________________________
block5b_drop (FixedDropout)     (None, 32, 32, 112)  0           block5b_project_bn[0][0]         
__________________________________________________________________________________________________
block5b_add (Add)               (None, 32, 32, 112)  0           block5b_drop[0][0]               
                                                                 block5a_project_bn[0][0]         
__________________________________________________________________________________________________
block5c_expand_conv (Conv2D)    (None, 32, 32, 672)  75264       block5b_add[0][0]                
__________________________________________________________________________________________________
block5c_expand_bn (BatchNormali (None, 32, 32, 672)  2688        block5c_expand_conv[0][0]        
__________________________________________________________________________________________________
block5c_expand_activation (Acti (None, 32, 32, 672)  0           block5c_expand_bn[0][0]          
__________________________________________________________________________________________________
block5c_dwconv (DepthwiseConv2D (None, 32, 32, 672)  16800       block5c_expand_activation[0][0]  
__________________________________________________________________________________________________
block5c_bn (BatchNormalization) (None, 32, 32, 672)  2688        block5c_dwconv[0][0]             
__________________________________________________________________________________________________
block5c_activation (Activation) (None, 32, 32, 672)  0           block5c_bn[0][0]                 
__________________________________________________________________________________________________
block5c_se_squeeze (GlobalAvera (None, 672)          0           block5c_activation[0][0]         
__________________________________________________________________________________________________
block5c_se_reshape (Reshape)    (None, 1, 1, 672)    0           block5c_se_squeeze[0][0]         
__________________________________________________________________________________________________
block5c_se_reduce (Conv2D)      (None, 1, 1, 28)     18844       block5c_se_reshape[0][0]         
__________________________________________________________________________________________________
block5c_se_expand (Conv2D)      (None, 1, 1, 672)    19488       block5c_se_reduce[0][0]          
__________________________________________________________________________________________________
block5c_se_excite (Multiply)    (None, 32, 32, 672)  0           block5c_activation[0][0]         
                                                                 block5c_se_expand[0][0]          
__________________________________________________________________________________________________
block5c_project_conv (Conv2D)   (None, 32, 32, 112)  75264       block5c_se_excite[0][0]          
__________________________________________________________________________________________________
block5c_project_bn (BatchNormal (None, 32, 32, 112)  448         block5c_project_conv[0][0]       
__________________________________________________________________________________________________
block5c_drop (FixedDropout)     (None, 32, 32, 112)  0           block5c_project_bn[0][0]         
__________________________________________________________________________________________________
block5c_add (Add)               (None, 32, 32, 112)  0           block5c_drop[0][0]               
                                                                 block5b_add[0][0]                
__________________________________________________________________________________________________
block6a_expand_conv (Conv2D)    (None, 32, 32, 672)  75264       block5c_add[0][0]                
__________________________________________________________________________________________________
block6a_expand_bn (BatchNormali (None, 32, 32, 672)  2688        block6a_expand_conv[0][0]        
__________________________________________________________________________________________________
block6a_expand_activation (Acti (None, 32, 32, 672)  0           block6a_expand_bn[0][0]          
__________________________________________________________________________________________________
block6a_dwconv (DepthwiseConv2D (None, 16, 16, 672)  16800       block6a_expand_activation[0][0]  
__________________________________________________________________________________________________
block6a_bn (BatchNormalization) (None, 16, 16, 672)  2688        block6a_dwconv[0][0]             
__________________________________________________________________________________________________
block6a_activation (Activation) (None, 16, 16, 672)  0           block6a_bn[0][0]                 
__________________________________________________________________________________________________
block6a_se_squeeze (GlobalAvera (None, 672)          0           block6a_activation[0][0]         
__________________________________________________________________________________________________
block6a_se_reshape (Reshape)    (None, 1, 1, 672)    0           block6a_se_squeeze[0][0]         
__________________________________________________________________________________________________
block6a_se_reduce (Conv2D)      (None, 1, 1, 28)     18844       block6a_se_reshape[0][0]         
__________________________________________________________________________________________________
block6a_se_expand (Conv2D)      (None, 1, 1, 672)    19488       block6a_se_reduce[0][0]          
__________________________________________________________________________________________________
block6a_se_excite (Multiply)    (None, 16, 16, 672)  0           block6a_activation[0][0]         
                                                                 block6a_se_expand[0][0]          
__________________________________________________________________________________________________
block6a_project_conv (Conv2D)   (None, 16, 16, 192)  129024      block6a_se_excite[0][0]          
__________________________________________________________________________________________________
block6a_project_bn (BatchNormal (None, 16, 16, 192)  768         block6a_project_conv[0][0]       
__________________________________________________________________________________________________
block6b_expand_conv (Conv2D)    (None, 16, 16, 1152) 221184      block6a_project_bn[0][0]         
__________________________________________________________________________________________________
block6b_expand_bn (BatchNormali (None, 16, 16, 1152) 4608        block6b_expand_conv[0][0]        
__________________________________________________________________________________________________
block6b_expand_activation (Acti (None, 16, 16, 1152) 0           block6b_expand_bn[0][0]          
__________________________________________________________________________________________________
block6b_dwconv (DepthwiseConv2D (None, 16, 16, 1152) 28800       block6b_expand_activation[0][0]  
__________________________________________________________________________________________________
block6b_bn (BatchNormalization) (None, 16, 16, 1152) 4608        block6b_dwconv[0][0]             
__________________________________________________________________________________________________
block6b_activation (Activation) (None, 16, 16, 1152) 0           block6b_bn[0][0]                 
__________________________________________________________________________________________________
block6b_se_squeeze (GlobalAvera (None, 1152)         0           block6b_activation[0][0]         
__________________________________________________________________________________________________
block6b_se_reshape (Reshape)    (None, 1, 1, 1152)   0           block6b_se_squeeze[0][0]         
__________________________________________________________________________________________________
block6b_se_reduce (Conv2D)      (None, 1, 1, 48)     55344       block6b_se_reshape[0][0]         
__________________________________________________________________________________________________
block6b_se_expand (Conv2D)      (None, 1, 1, 1152)   56448       block6b_se_reduce[0][0]          
__________________________________________________________________________________________________
block6b_se_excite (Multiply)    (None, 16, 16, 1152) 0           block6b_activation[0][0]         
                                                                 block6b_se_expand[0][0]          
__________________________________________________________________________________________________
block6b_project_conv (Conv2D)   (None, 16, 16, 192)  221184      block6b_se_excite[0][0]          
__________________________________________________________________________________________________
block6b_project_bn (BatchNormal (None, 16, 16, 192)  768         block6b_project_conv[0][0]       
__________________________________________________________________________________________________
block6b_drop (FixedDropout)     (None, 16, 16, 192)  0           block6b_project_bn[0][0]         
__________________________________________________________________________________________________
block6b_add (Add)               (None, 16, 16, 192)  0           block6b_drop[0][0]               
                                                                 block6a_project_bn[0][0]         
__________________________________________________________________________________________________
block6c_expand_conv (Conv2D)    (None, 16, 16, 1152) 221184      block6b_add[0][0]                
__________________________________________________________________________________________________
block6c_expand_bn (BatchNormali (None, 16, 16, 1152) 4608        block6c_expand_conv[0][0]        
__________________________________________________________________________________________________
block6c_expand_activation (Acti (None, 16, 16, 1152) 0           block6c_expand_bn[0][0]          
__________________________________________________________________________________________________
block6c_dwconv (DepthwiseConv2D (None, 16, 16, 1152) 28800       block6c_expand_activation[0][0]  
__________________________________________________________________________________________________
block6c_bn (BatchNormalization) (None, 16, 16, 1152) 4608        block6c_dwconv[0][0]             
__________________________________________________________________________________________________
block6c_activation (Activation) (None, 16, 16, 1152) 0           block6c_bn[0][0]                 
__________________________________________________________________________________________________
block6c_se_squeeze (GlobalAvera (None, 1152)         0           block6c_activation[0][0]         
__________________________________________________________________________________________________
block6c_se_reshape (Reshape)    (None, 1, 1, 1152)   0           block6c_se_squeeze[0][0]         
__________________________________________________________________________________________________
block6c_se_reduce (Conv2D)      (None, 1, 1, 48)     55344       block6c_se_reshape[0][0]         
__________________________________________________________________________________________________
block6c_se_expand (Conv2D)      (None, 1, 1, 1152)   56448       block6c_se_reduce[0][0]          
__________________________________________________________________________________________________
block6c_se_excite (Multiply)    (None, 16, 16, 1152) 0           block6c_activation[0][0]         
                                                                 block6c_se_expand[0][0]          
__________________________________________________________________________________________________
block6c_project_conv (Conv2D)   (None, 16, 16, 192)  221184      block6c_se_excite[0][0]          
__________________________________________________________________________________________________
block6c_project_bn (BatchNormal (None, 16, 16, 192)  768         block6c_project_conv[0][0]       
__________________________________________________________________________________________________
block6c_drop (FixedDropout)     (None, 16, 16, 192)  0           block6c_project_bn[0][0]         
__________________________________________________________________________________________________
block6c_add (Add)               (None, 16, 16, 192)  0           block6c_drop[0][0]               
                                                                 block6b_add[0][0]                
__________________________________________________________________________________________________
block6d_expand_conv (Conv2D)    (None, 16, 16, 1152) 221184      block6c_add[0][0]                
__________________________________________________________________________________________________
block6d_expand_bn (BatchNormali (None, 16, 16, 1152) 4608        block6d_expand_conv[0][0]        
__________________________________________________________________________________________________
block6d_expand_activation (Acti (None, 16, 16, 1152) 0           block6d_expand_bn[0][0]          
__________________________________________________________________________________________________
block6d_dwconv (DepthwiseConv2D (None, 16, 16, 1152) 28800       block6d_expand_activation[0][0]  
__________________________________________________________________________________________________
block6d_bn (BatchNormalization) (None, 16, 16, 1152) 4608        block6d_dwconv[0][0]             
__________________________________________________________________________________________________
block6d_activation (Activation) (None, 16, 16, 1152) 0           block6d_bn[0][0]                 
__________________________________________________________________________________________________
block6d_se_squeeze (GlobalAvera (None, 1152)         0           block6d_activation[0][0]         
__________________________________________________________________________________________________
block6d_se_reshape (Reshape)    (None, 1, 1, 1152)   0           block6d_se_squeeze[0][0]         
__________________________________________________________________________________________________
block6d_se_reduce (Conv2D)      (None, 1, 1, 48)     55344       block6d_se_reshape[0][0]         
__________________________________________________________________________________________________
block6d_se_expand (Conv2D)      (None, 1, 1, 1152)   56448       block6d_se_reduce[0][0]          
__________________________________________________________________________________________________
block6d_se_excite (Multiply)    (None, 16, 16, 1152) 0           block6d_activation[0][0]         
                                                                 block6d_se_expand[0][0]          
__________________________________________________________________________________________________
block6d_project_conv (Conv2D)   (None, 16, 16, 192)  221184      block6d_se_excite[0][0]          
__________________________________________________________________________________________________
block6d_project_bn (BatchNormal (None, 16, 16, 192)  768         block6d_project_conv[0][0]       
__________________________________________________________________________________________________
block6d_drop (FixedDropout)     (None, 16, 16, 192)  0           block6d_project_bn[0][0]         
__________________________________________________________________________________________________
block6d_add (Add)               (None, 16, 16, 192)  0           block6d_drop[0][0]               
                                                                 block6c_add[0][0]                
__________________________________________________________________________________________________
block7a_expand_conv (Conv2D)    (None, 16, 16, 1152) 221184      block6d_add[0][0]                
__________________________________________________________________________________________________
block7a_expand_bn (BatchNormali (None, 16, 16, 1152) 4608        block7a_expand_conv[0][0]        
__________________________________________________________________________________________________
block7a_expand_activation (Acti (None, 16, 16, 1152) 0           block7a_expand_bn[0][0]          
__________________________________________________________________________________________________
block7a_dwconv (DepthwiseConv2D (None, 16, 16, 1152) 10368       block7a_expand_activation[0][0]  
__________________________________________________________________________________________________
block7a_bn (BatchNormalization) (None, 16, 16, 1152) 4608        block7a_dwconv[0][0]             
__________________________________________________________________________________________________
block7a_activation (Activation) (None, 16, 16, 1152) 0           block7a_bn[0][0]                 
__________________________________________________________________________________________________
block7a_se_squeeze (GlobalAvera (None, 1152)         0           block7a_activation[0][0]         
__________________________________________________________________________________________________
block7a_se_reshape (Reshape)    (None, 1, 1, 1152)   0           block7a_se_squeeze[0][0]         
__________________________________________________________________________________________________
block7a_se_reduce (Conv2D)      (None, 1, 1, 48)     55344       block7a_se_reshape[0][0]         
__________________________________________________________________________________________________
block7a_se_expand (Conv2D)      (None, 1, 1, 1152)   56448       block7a_se_reduce[0][0]          
__________________________________________________________________________________________________
block7a_se_excite (Multiply)    (None, 16, 16, 1152) 0           block7a_activation[0][0]         
                                                                 block7a_se_expand[0][0]          
__________________________________________________________________________________________________
block7a_project_conv (Conv2D)   (None, 16, 16, 320)  368640      block7a_se_excite[0][0]          
__________________________________________________________________________________________________
block7a_project_bn (BatchNormal (None, 16, 16, 320)  1280        block7a_project_conv[0][0]       
__________________________________________________________________________________________________
resample_p6/conv2d (Conv2D)     (None, 16, 16, 64)   20544       block7a_project_bn[0][0]         
__________________________________________________________________________________________________
resample_p6/bn (BatchNormalizat (None, 16, 16, 64)   256         resample_p6/conv2d[0][0]         
__________________________________________________________________________________________________
resample_p6/maxpool (MaxPooling (None, 8, 8, 64)     0           resample_p6/bn[0][0]             
__________________________________________________________________________________________________
resample_p7/maxpool (MaxPooling (None, 4, 4, 64)     0           resample_p6/maxpool[0][0]        
__________________________________________________________________________________________________
up_sampling2d (UpSampling2D)    (None, 8, 8, 64)     0           resample_p7/maxpool[0][0]        
__________________________________________________________________________________________________
fpn_cells/cell_0/fnode0/add (wB (None, 8, 8, 64)     2           resample_p6/maxpool[0][0]        
                                                                 up_sampling2d[0][0]              
__________________________________________________________________________________________________
activation (Activation)         (None, 8, 8, 64)     0           fpn_cells/cell_0/fnode0/add[0][0]
__________________________________________________________________________________________________
fpn_cells/cell_0/fnode0/op_afte (None, 8, 8, 64)     4736        activation[0][0]                 
__________________________________________________________________________________________________
fpn_cells/cell_0/fnode1/resampl (None, 16, 16, 64)   20544       block7a_project_bn[0][0]         
__________________________________________________________________________________________________
fpn_cells/cell_0/fnode0/op_afte (None, 8, 8, 64)     256         fpn_cells/cell_0/fnode0/op_after_
__________________________________________________________________________________________________
fpn_cells/cell_0/fnode1/resampl (None, 16, 16, 64)   256         fpn_cells/cell_0/fnode1/resample_
__________________________________________________________________________________________________
up_sampling2d_1 (UpSampling2D)  (None, 16, 16, 64)   0           fpn_cells/cell_0/fnode0/op_after_
__________________________________________________________________________________________________
fpn_cells/cell_0/fnode1/add (wB (None, 16, 16, 64)   2           fpn_cells/cell_0/fnode1/resample_
                                                                 up_sampling2d_1[0][0]            
__________________________________________________________________________________________________
activation_1 (Activation)       (None, 16, 16, 64)   0           fpn_cells/cell_0/fnode1/add[0][0]
__________________________________________________________________________________________________
fpn_cells/cell_0/fnode1/op_afte (None, 16, 16, 64)   4736        activation_1[0][0]               
__________________________________________________________________________________________________
fpn_cells/cell_0/fnode2/resampl (None, 32, 32, 64)   7232        block5c_add[0][0]                
__________________________________________________________________________________________________
fpn_cells/cell_0/fnode1/op_afte (None, 16, 16, 64)   256         fpn_cells/cell_0/fnode1/op_after_
__________________________________________________________________________________________________
fpn_cells/cell_0/fnode2/resampl (None, 32, 32, 64)   256         fpn_cells/cell_0/fnode2/resample_
__________________________________________________________________________________________________
up_sampling2d_2 (UpSampling2D)  (None, 32, 32, 64)   0           fpn_cells/cell_0/fnode1/op_after_
__________________________________________________________________________________________________
fpn_cells/cell_0/fnode2/add (wB (None, 32, 32, 64)   2           fpn_cells/cell_0/fnode2/resample_
                                                                 up_sampling2d_2[0][0]            
__________________________________________________________________________________________________
activation_2 (Activation)       (None, 32, 32, 64)   0           fpn_cells/cell_0/fnode2/add[0][0]
__________________________________________________________________________________________________
fpn_cells/cell_0/fnode2/op_afte (None, 32, 32, 64)   4736        activation_2[0][0]               
__________________________________________________________________________________________________
fpn_cells/cell_0/fnode3/resampl (None, 64, 64, 64)   2624        block3b_add[0][0]                
__________________________________________________________________________________________________
fpn_cells/cell_0/fnode2/op_afte (None, 32, 32, 64)   256         fpn_cells/cell_0/fnode2/op_after_
__________________________________________________________________________________________________
fpn_cells/cell_0/fnode3/resampl (None, 64, 64, 64)   256         fpn_cells/cell_0/fnode3/resample_
__________________________________________________________________________________________________
up_sampling2d_3 (UpSampling2D)  (None, 64, 64, 64)   0           fpn_cells/cell_0/fnode2/op_after_
__________________________________________________________________________________________________
fpn_cells/cell_0/fnode3/add (wB (None, 64, 64, 64)   2           fpn_cells/cell_0/fnode3/resample_
                                                                 up_sampling2d_3[0][0]            
__________________________________________________________________________________________________
activation_3 (Activation)       (None, 64, 64, 64)   0           fpn_cells/cell_0/fnode3/add[0][0]
__________________________________________________________________________________________________
fpn_cells/cell_0/fnode3/op_afte (None, 64, 64, 64)   4736        activation_3[0][0]               
__________________________________________________________________________________________________
fpn_cells/cell_0/fnode3/op_afte (None, 64, 64, 64)   256         fpn_cells/cell_0/fnode3/op_after_
__________________________________________________________________________________________________
fpn_cells/cell_0/fnode4/resampl (None, 32, 32, 64)   7232        block5c_add[0][0]                
__________________________________________________________________________________________________
fpn_cells/cell_0/fnode4/resampl (None, 32, 32, 64)   256         fpn_cells/cell_0/fnode4/resample_
__________________________________________________________________________________________________
max_pooling2d (MaxPooling2D)    (None, 32, 32, 64)   0           fpn_cells/cell_0/fnode3/op_after_
__________________________________________________________________________________________________
fpn_cells/cell_0/fnode4/add (wB (None, 32, 32, 64)   3           fpn_cells/cell_0/fnode4/resample_
                                                                 fpn_cells/cell_0/fnode2/op_after_
                                                                 max_pooling2d[0][0]              
__________________________________________________________________________________________________
activation_4 (Activation)       (None, 32, 32, 64)   0           fpn_cells/cell_0/fnode4/add[0][0]
__________________________________________________________________________________________________
fpn_cells/cell_0/fnode4/op_afte (None, 32, 32, 64)   4736        activation_4[0][0]               
__________________________________________________________________________________________________
fpn_cells/cell_0/fnode5/resampl (None, 16, 16, 64)   20544       block7a_project_bn[0][0]         
__________________________________________________________________________________________________
fpn_cells/cell_0/fnode4/op_afte (None, 32, 32, 64)   256         fpn_cells/cell_0/fnode4/op_after_
__________________________________________________________________________________________________
fpn_cells/cell_0/fnode5/resampl (None, 16, 16, 64)   256         fpn_cells/cell_0/fnode5/resample_
__________________________________________________________________________________________________
max_pooling2d_1 (MaxPooling2D)  (None, 16, 16, 64)   0           fpn_cells/cell_0/fnode4/op_after_
__________________________________________________________________________________________________
fpn_cells/cell_0/fnode5/add (wB (None, 16, 16, 64)   3           fpn_cells/cell_0/fnode5/resample_
                                                                 fpn_cells/cell_0/fnode1/op_after_
                                                                 max_pooling2d_1[0][0]            
__________________________________________________________________________________________________
activation_5 (Activation)       (None, 16, 16, 64)   0           fpn_cells/cell_0/fnode5/add[0][0]
__________________________________________________________________________________________________
fpn_cells/cell_0/fnode5/op_afte (None, 16, 16, 64)   4736        activation_5[0][0]               
__________________________________________________________________________________________________
fpn_cells/cell_0/fnode5/op_afte (None, 16, 16, 64)   256         fpn_cells/cell_0/fnode5/op_after_
__________________________________________________________________________________________________
max_pooling2d_2 (MaxPooling2D)  (None, 8, 8, 64)     0           fpn_cells/cell_0/fnode5/op_after_
__________________________________________________________________________________________________
fpn_cells/cell_0/fnode6/add (wB (None, 8, 8, 64)     3           resample_p6/maxpool[0][0]        
                                                                 fpn_cells/cell_0/fnode0/op_after_
                                                                 max_pooling2d_2[0][0]            
__________________________________________________________________________________________________
activation_6 (Activation)       (None, 8, 8, 64)     0           fpn_cells/cell_0/fnode6/add[0][0]
__________________________________________________________________________________________________
fpn_cells/cell_0/fnode6/op_afte (None, 8, 8, 64)     4736        activation_6[0][0]               
__________________________________________________________________________________________________
fpn_cells/cell_0/fnode6/op_afte (None, 8, 8, 64)     256         fpn_cells/cell_0/fnode6/op_after_
__________________________________________________________________________________________________
max_pooling2d_3 (MaxPooling2D)  (None, 4, 4, 64)     0           fpn_cells/cell_0/fnode6/op_after_
__________________________________________________________________________________________________
fpn_cells/cell_0/fnode7/add (wB (None, 4, 4, 64)     2           resample_p7/maxpool[0][0]        
                                                                 max_pooling2d_3[0][0]            
__________________________________________________________________________________________________
activation_7 (Activation)       (None, 4, 4, 64)     0           fpn_cells/cell_0/fnode7/add[0][0]
__________________________________________________________________________________________________
fpn_cells/cell_0/fnode7/op_afte (None, 4, 4, 64)     4736        activation_7[0][0]               
__________________________________________________________________________________________________
fpn_cells/cell_0/fnode7/op_afte (None, 4, 4, 64)     256         fpn_cells/cell_0/fnode7/op_after_
__________________________________________________________________________________________________
up_sampling2d_4 (UpSampling2D)  (None, 8, 8, 64)     0           fpn_cells/cell_0/fnode7/op_after_
__________________________________________________________________________________________________
fpn_cells/cell_1/fnode0/add (wB (None, 8, 8, 64)     2           fpn_cells/cell_0/fnode0/op_after_
                                                                 up_sampling2d_4[0][0]            
__________________________________________________________________________________________________
activation_8 (Activation)       (None, 8, 8, 64)     0           fpn_cells/cell_1/fnode0/add[0][0]
__________________________________________________________________________________________________
fpn_cells/cell_1/fnode0/op_afte (None, 8, 8, 64)     4736        activation_8[0][0]               
__________________________________________________________________________________________________
fpn_cells/cell_1/fnode0/op_afte (None, 8, 8, 64)     256         fpn_cells/cell_1/fnode0/op_after_
__________________________________________________________________________________________________
up_sampling2d_5 (UpSampling2D)  (None, 16, 16, 64)   0           fpn_cells/cell_1/fnode0/op_after_
__________________________________________________________________________________________________
fpn_cells/cell_1/fnode1/add (wB (None, 16, 16, 64)   2           fpn_cells/cell_0/fnode1/op_after_
                                                                 up_sampling2d_5[0][0]            
__________________________________________________________________________________________________
activation_9 (Activation)       (None, 16, 16, 64)   0           fpn_cells/cell_1/fnode1/add[0][0]
__________________________________________________________________________________________________
fpn_cells/cell_1/fnode1/op_afte (None, 16, 16, 64)   4736        activation_9[0][0]               
__________________________________________________________________________________________________
fpn_cells/cell_1/fnode1/op_afte (None, 16, 16, 64)   256         fpn_cells/cell_1/fnode1/op_after_
__________________________________________________________________________________________________
up_sampling2d_6 (UpSampling2D)  (None, 32, 32, 64)   0           fpn_cells/cell_1/fnode1/op_after_
__________________________________________________________________________________________________
fpn_cells/cell_1/fnode2/add (wB (None, 32, 32, 64)   2           fpn_cells/cell_0/fnode2/op_after_
                                                                 up_sampling2d_6[0][0]            
__________________________________________________________________________________________________
activation_10 (Activation)      (None, 32, 32, 64)   0           fpn_cells/cell_1/fnode2/add[0][0]
__________________________________________________________________________________________________
fpn_cells/cell_1/fnode2/op_afte (None, 32, 32, 64)   4736        activation_10[0][0]              
__________________________________________________________________________________________________
fpn_cells/cell_1/fnode2/op_afte (None, 32, 32, 64)   256         fpn_cells/cell_1/fnode2/op_after_
__________________________________________________________________________________________________
up_sampling2d_7 (UpSampling2D)  (None, 64, 64, 64)   0           fpn_cells/cell_1/fnode2/op_after_
__________________________________________________________________________________________________
fpn_cells/cell_1/fnode3/add (wB (None, 64, 64, 64)   2           fpn_cells/cell_0/fnode3/op_after_
                                                                 up_sampling2d_7[0][0]            
__________________________________________________________________________________________________
activation_11 (Activation)      (None, 64, 64, 64)   0           fpn_cells/cell_1/fnode3/add[0][0]
__________________________________________________________________________________________________
fpn_cells/cell_1/fnode3/op_afte (None, 64, 64, 64)   4736        activation_11[0][0]              
__________________________________________________________________________________________________
fpn_cells/cell_1/fnode3/op_afte (None, 64, 64, 64)   256         fpn_cells/cell_1/fnode3/op_after_
__________________________________________________________________________________________________
max_pooling2d_4 (MaxPooling2D)  (None, 32, 32, 64)   0           fpn_cells/cell_1/fnode3/op_after_
__________________________________________________________________________________________________
fpn_cells/cell_1/fnode4/add (wB (None, 32, 32, 64)   3           fpn_cells/cell_0/fnode2/op_after_
                                                                 fpn_cells/cell_1/fnode2/op_after_
                                                                 max_pooling2d_4[0][0]            
__________________________________________________________________________________________________
activation_12 (Activation)      (None, 32, 32, 64)   0           fpn_cells/cell_1/fnode4/add[0][0]
__________________________________________________________________________________________________
fpn_cells/cell_1/fnode4/op_afte (None, 32, 32, 64)   4736        activation_12[0][0]              
__________________________________________________________________________________________________
fpn_cells/cell_1/fnode4/op_afte (None, 32, 32, 64)   256         fpn_cells/cell_1/fnode4/op_after_
__________________________________________________________________________________________________
max_pooling2d_5 (MaxPooling2D)  (None, 16, 16, 64)   0           fpn_cells/cell_1/fnode4/op_after_
__________________________________________________________________________________________________
fpn_cells/cell_1/fnode5/add (wB (None, 16, 16, 64)   3           fpn_cells/cell_0/fnode1/op_after_
                                                                 fpn_cells/cell_1/fnode1/op_after_
                                                                 max_pooling2d_5[0][0]            
__________________________________________________________________________________________________
activation_13 (Activation)      (None, 16, 16, 64)   0           fpn_cells/cell_1/fnode5/add[0][0]
__________________________________________________________________________________________________
fpn_cells/cell_1/fnode5/op_afte (None, 16, 16, 64)   4736        activation_13[0][0]              
__________________________________________________________________________________________________
fpn_cells/cell_1/fnode5/op_afte (None, 16, 16, 64)   256         fpn_cells/cell_1/fnode5/op_after_
__________________________________________________________________________________________________
max_pooling2d_6 (MaxPooling2D)  (None, 8, 8, 64)     0           fpn_cells/cell_1/fnode5/op_after_
__________________________________________________________________________________________________
fpn_cells/cell_1/fnode6/add (wB (None, 8, 8, 64)     3           fpn_cells/cell_0/fnode0/op_after_
                                                                 fpn_cells/cell_1/fnode0/op_after_
                                                                 max_pooling2d_6[0][0]            
__________________________________________________________________________________________________
activation_14 (Activation)      (None, 8, 8, 64)     0           fpn_cells/cell_1/fnode6/add[0][0]
__________________________________________________________________________________________________
fpn_cells/cell_1/fnode6/op_afte (None, 8, 8, 64)     4736        activation_14[0][0]              
__________________________________________________________________________________________________
fpn_cells/cell_1/fnode6/op_afte (None, 8, 8, 64)     256         fpn_cells/cell_1/fnode6/op_after_
__________________________________________________________________________________________________
max_pooling2d_7 (MaxPooling2D)  (None, 4, 4, 64)     0           fpn_cells/cell_1/fnode6/op_after_
__________________________________________________________________________________________________
fpn_cells/cell_1/fnode7/add (wB (None, 4, 4, 64)     2           fpn_cells/cell_0/fnode7/op_after_
                                                                 max_pooling2d_7[0][0]            
__________________________________________________________________________________________________
activation_15 (Activation)      (None, 4, 4, 64)     0           fpn_cells/cell_1/fnode7/add[0][0]
__________________________________________________________________________________________________
fpn_cells/cell_1/fnode7/op_afte (None, 4, 4, 64)     4736        activation_15[0][0]              
__________________________________________________________________________________________________
fpn_cells/cell_1/fnode7/op_afte (None, 4, 4, 64)     256         fpn_cells/cell_1/fnode7/op_after_
__________________________________________________________________________________________________
up_sampling2d_8 (UpSampling2D)  (None, 8, 8, 64)     0           fpn_cells/cell_1/fnode7/op_after_
__________________________________________________________________________________________________
fpn_cells/cell_2/fnode0/add (wB (None, 8, 8, 64)     2           fpn_cells/cell_1/fnode0/op_after_
                                                                 up_sampling2d_8[0][0]            
__________________________________________________________________________________________________
activation_16 (Activation)      (None, 8, 8, 64)     0           fpn_cells/cell_2/fnode0/add[0][0]
__________________________________________________________________________________________________
fpn_cells/cell_2/fnode0/op_afte (None, 8, 8, 64)     4736        activation_16[0][0]              
__________________________________________________________________________________________________
fpn_cells/cell_2/fnode0/op_afte (None, 8, 8, 64)     256         fpn_cells/cell_2/fnode0/op_after_
__________________________________________________________________________________________________
up_sampling2d_9 (UpSampling2D)  (None, 16, 16, 64)   0           fpn_cells/cell_2/fnode0/op_after_
__________________________________________________________________________________________________
fpn_cells/cell_2/fnode1/add (wB (None, 16, 16, 64)   2           fpn_cells/cell_1/fnode1/op_after_
                                                                 up_sampling2d_9[0][0]            
__________________________________________________________________________________________________
activation_17 (Activation)      (None, 16, 16, 64)   0           fpn_cells/cell_2/fnode1/add[0][0]
__________________________________________________________________________________________________
fpn_cells/cell_2/fnode1/op_afte (None, 16, 16, 64)   4736        activation_17[0][0]              
__________________________________________________________________________________________________
fpn_cells/cell_2/fnode1/op_afte (None, 16, 16, 64)   256         fpn_cells/cell_2/fnode1/op_after_
__________________________________________________________________________________________________
up_sampling2d_10 (UpSampling2D) (None, 32, 32, 64)   0           fpn_cells/cell_2/fnode1/op_after_
__________________________________________________________________________________________________
fpn_cells/cell_2/fnode2/add (wB (None, 32, 32, 64)   2           fpn_cells/cell_1/fnode2/op_after_
                                                                 up_sampling2d_10[0][0]           
__________________________________________________________________________________________________
activation_18 (Activation)      (None, 32, 32, 64)   0           fpn_cells/cell_2/fnode2/add[0][0]
__________________________________________________________________________________________________
fpn_cells/cell_2/fnode2/op_afte (None, 32, 32, 64)   4736        activation_18[0][0]              
__________________________________________________________________________________________________
fpn_cells/cell_2/fnode2/op_afte (None, 32, 32, 64)   256         fpn_cells/cell_2/fnode2/op_after_
__________________________________________________________________________________________________
up_sampling2d_11 (UpSampling2D) (None, 64, 64, 64)   0           fpn_cells/cell_2/fnode2/op_after_
__________________________________________________________________________________________________
fpn_cells/cell_2/fnode3/add (wB (None, 64, 64, 64)   2           fpn_cells/cell_1/fnode3/op_after_
                                                                 up_sampling2d_11[0][0]           
__________________________________________________________________________________________________
activation_19 (Activation)      (None, 64, 64, 64)   0           fpn_cells/cell_2/fnode3/add[0][0]
__________________________________________________________________________________________________
fpn_cells/cell_2/fnode3/op_afte (None, 64, 64, 64)   4736        activation_19[0][0]              
__________________________________________________________________________________________________
fpn_cells/cell_2/fnode3/op_afte (None, 64, 64, 64)   256         fpn_cells/cell_2/fnode3/op_after_
__________________________________________________________________________________________________
translation_net/translation-0 ( multiple             4736        fpn_cells/cell_2/fnode3/op_after_
                                                                 fpn_cells/cell_2/fnode2/op_after_
                                                                 fpn_cells/cell_2/fnode1/op_after_
                                                                 fpn_cells/cell_2/fnode0/op_after_
                                                                 fpn_cells/cell_2/fnode7/op_after_
__________________________________________________________________________________________________
translation_net/translation-0-g (None, 64, 64, 64)   128         translation_net/translation-0[0][
__________________________________________________________________________________________________
lambda_5 (Lambda)               multiple             0           translation_net/translation-0-gn-
                                                                 translation_net/translation-1-gn-
                                                                 translation_net/translation-2-gn-
…
translation_net/translation-2 ( multiple             4736        lambda_5[1][0]                   
                                                                 lambda_5[4][0]                   
                                                                 lambda_5[7][0]                   
                                                                 lambda_5[10][0]                  
                                                                 lambda_5[13][0]                  
__________________________________________________________________________________________________
fpn_cells/cell_2/fnode4/op_afte (None, 32, 32, 64)   4736        activation_20[0][0]              
__________________________________________________________________________________________________
rotation_net/rotation-0-gn-3 (G (None, 64, 64, 64)   128         rotation_net/rotation-0[0][0]    
__________________________________________________________________________________________________
translation_net/translation-2-g (None, 64, 64, 64)   128         translation_net/translation-2[0][
__________________________________________________________________________________________________
translation_net/translation-0-g (None, 32, 32, 64)   128         translation_net/translation-0[1][
__________________________________________________________________________________________________
fpn_cells/cell_2/fnode4/op_afte (None, 32, 32, 64)   256         fpn_cells/cell_2/fnode4/op_after_
__________________________________________________________________________________________________
lambda_3 (Lambda)               multiple             0           rotation_net/rotation-0-gn-3[0][0
                                                                 rotation_net/rotation-1-gn-3[0][0
                                                                 rotation_net/rotation-2-gn-3[0][0
…
                                                                 rotation_net/rotation-1-gn-6[0][0
                                                                 rotation_net/rotation-2-gn-6[0][0
                                                                 rotation_net/rotation-0-gn-7[0][0
                                                                 rotation_net/rotation-1-gn-7[0][0
                                                                 rotation_net/rotation-2-gn-7[0][0
__________________________________________________________________________________________________
max_pooling2d_9 (MaxPooling2D)  (None, 16, 16, 64)   0           fpn_cells/cell_2/fnode4/op_after_
__________________________________________________________________________________________________
rotation_net/rotation-1 (Separa multiple             4736        lambda_3[0][0]                   
                                                                 lambda_3[3][0]                   
                                                                 lambda_3[6][0]                   
                                                                 lambda_3[9][0]                   
                                                                 lambda_3[12][0]                  
__________________________________________________________________________________________________
fpn_cells/cell_2/fnode5/add (wB (None, 16, 16, 64)   3           fpn_cells/cell_1/fnode1/op_after_
                                                                 fpn_cells/cell_2/fnode1/op_after_
                                                                 max_pooling2d_9[0][0]            
__________________________________________________________________________________________________
rotation_net/rotation-1-gn-3 (G (None, 64, 64, 64)   128         rotation_net/rotation-1[0][0]    
__________________________________________________________________________________________________
translation_net/translation-1-g (None, 32, 32, 64)   128         translation_net/translation-1[1][
__________________________________________________________________________________________________
activation_21 (Activation)      (None, 16, 16, 64)   0           fpn_cells/cell_2/fnode5/add[0][0]
__________________________________________________________________________________________________
fpn_cells/cell_2/fnode5/op_afte (None, 16, 16, 64)   4736        activation_21[0][0]              
__________________________________________________________________________________________________
rotation_net/rotation-2 (Separa multiple             4736        lambda_3[1][0]                   
                                                                 lambda_3[4][0]                   
                                                                 lambda_3[7][0]                   
                                                                 lambda_3[10][0]                  
                                                                 lambda_3[13][0]                  
__________________________________________________________________________________________________
fpn_cells/cell_2/fnode5/op_afte (None, 16, 16, 64)   256         fpn_cells/cell_2/fnode5/op_after_
__________________________________________________________________________________________________
rotation_net/rotation-2-gn-3 (G (None, 64, 64, 64)   128         rotation_net/rotation-2[0][0]    
__________________________________________________________________________________________________
rotation_net/rotation-0-gn-4 (G (None, 32, 32, 64)   128         rotation_net/rotation-0[1][0]    
__________________________________________________________________________________________________
translation_net/translation-2-g (None, 32, 32, 64)   128         translation_net/translation-2[1][
__________________________________________________________________________________________________
translation_net/translation-0-g (None, 16, 16, 64)   128         translation_net/translation-0[2][
__________________________________________________________________________________________________
max_pooling2d_10 (MaxPooling2D) (None, 8, 8, 64)     0           fpn_cells/cell_2/fnode5/op_after_
__________________________________________________________________________________________________
class_net/class-0 (SeparableCon multiple             4736        fpn_cells/cell_2/fnode3/op_after_
                                                                 fpn_cells/cell_2/fnode2/op_after_
                                                                 fpn_cells/cell_2/fnode1/op_after_
                                                                 fpn_cells/cell_2/fnode0/op_after_
                                                                 fpn_cells/cell_2/fnode7/op_after_
__________________________________________________________________________________________________
fpn_cells/cell_2/fnode6/add (wB (None, 8, 8, 64)     3           fpn_cells/cell_1/fnode0/op_after_
                                                                 fpn_cells/cell_2/fnode0/op_after_
                                                                 max_pooling2d_10[0][0]           
__________________________________________________________________________________________________
class_net/class-0-bn-3 (BatchNo (None, 64, 64, 64)   256         class_net/class-0[0][0]          
__________________________________________________________________________________________________
activation_22 (Activation)      (None, 8, 8, 64)     0           fpn_cells/cell_2/fnode6/add[0][0]
__________________________________________________________________________________________________
box_net/box-0 (SeparableConv2D) multiple             4736        fpn_cells/cell_2/fnode3/op_after_
                                                                 fpn_cells/cell_2/fnode2/op_after_
                                                                 fpn_cells/cell_2/fnode1/op_after_
                                                                 fpn_cells/cell_2/fnode0/op_after_
                                                                 fpn_cells/cell_2/fnode7/op_after_
__________________________________________________________________________________________________
rotation_net/rotation-1-gn-4 (G (None, 32, 32, 64)   128         rotation_net/rotation-1[1][0]    
__________________________________________________________________________________________________
translation_net/translation-1-g (None, 16, 16, 64)   128         translation_net/translation-1[2][
__________________________________________________________________________________________________
lambda_1 (Lambda)               multiple             0           class_net/class-0-bn-3[0][0]     
                                                                 class_net/class-1-bn-3[0][0]     
                                                                 class_net/class-2-bn-3[0][0]     
…
                                                                 box_net/box-1-bn-6[0][0]         
                                                                 box_net/box-2-bn-6[0][0]         
                                                                 box_net/box-0-bn-7[0][0]         
                                                                 box_net/box-1-bn-7[0][0]         
                                                                 box_net/box-2-bn-7[0][0]         
__________________________________________________________________________________________________
class_net/class-1-bn-3 (BatchNo (None, 64, 64, 64)   256         class_net/class-1[0][0]          
__________________________________________________________________________________________________
max_pooling2d_11 (MaxPooling2D) (None, 4, 4, 64)     0           fpn_cells/cell_2/fnode6/op_after_
__________________________________________________________________________________________________
box_net/box-1 (SeparableConv2D) multiple             4736        lambda[0][0]                     
                                                                 lambda[3][0]                     
                                                                 lambda[6][0]                     
                                                                 lambda[9][0]                     
                                                                 lambda[12][0]                    
__________________________________________________________________________________________________
rotation_net/rotation-2-gn-4 (G (None, 32, 32, 64)   128         rotation_net/rotation-2[1][0]    
__________________________________________________________________________________________________
rotation_net/rotation-0-gn-5 (G (None, 16, 16, 64)   128         rotation_net/rotation-0[2][0]    
__________________________________________________________________________________________________
translation_net/translation-2-g (None, 16, 16, 64)   128         translation_net/translation-2[2][
__________________________________________________________________________________________________
translation_net/translation-0-g (None, 8, 8, 64)     128         translation_net/translation-0[3][
__________________________________________________________________________________________________
fpn_cells/cell_2/fnode7/add (wB (None, 4, 4, 64)     2           fpn_cells/cell_1/fnode7/op_after_
                                                                 max_pooling2d_11[0][0]           
__________________________________________________________________________________________________
box_net/box-1-bn-3 (BatchNormal (None, 64, 64, 64)   256         box_net/box-1[0][0]              
__________________________________________________________________________________________________
class_net/class-2 (SeparableCon multiple             4736        lambda_1[1][0]                   
                                                                 lambda_1[4][0]                   
                                                                 lambda_1[7][0]                   
                                                                 lambda_1[10][0]                  
                                                                 lambda_1[13][0]                  
__________________________________________________________________________________________________
activation_23 (Activation)      (None, 4, 4, 64)     0           fpn_cells/cell_2/fnode7/add[0][0]
__________________________________________________________________________________________________
translation_net/translation-xy- multiple             1746        lambda_5[2][0]                   
                                                                 lambda_5[5][0]                   
                                                                 lambda_5[8][0]                   
…
                                                                 translation_net/translation-xy-in
                                                                 translation_net/translation-z-ini
                                                                 lambda_5[14][0]                  
                                                                 translation_net/translation-xy-in
                                                                 translation_net/translation-z-ini
__________________________________________________________________________________________________
translation_net/translation-1-g (None, 8, 8, 64)     128         translation_net/translation-1[3][
__________________________________________________________________________________________________
fpn_cells/cell_2/fnode7/op_afte (None, 4, 4, 64)     256         fpn_cells/cell_2/fnode7/op_after_
__________________________________________________________________________________________________
box_net/box-2-bn-3 (BatchNormal (None, 64, 64, 64)   256         box_net/box-2[0][0]              
__________________________________________________________________________________________________
box_net/box-0-bn-4 (BatchNormal (None, 32, 32, 64)   256         box_net/box-0[1][0]              
__________________________________________________________________________________________________
iterative_translation_subnet/it multiple             6707        concatenate_1[0][0]              
                                                                 concatenate_1[1][0]              
                                                                 concatenate_1[2][0]              
                                                                 concatenate_1[3][0]              
                                                                 concatenate_1[4][0]              
__________________________________________________________________________________________________
iterative_translation_subnet/it (None, 64, 64, 64)   128         iterative_translation_subnet/iter
__________________________________________________________________________________________________
class_net/class-1-bn-4 (BatchNo (None, 32, 32, 64)   256         class_net/class-1[1][0]          
__________________________________________________________________________________________________
rotation_net/rotation-2-gn-5 (G (None, 16, 16, 64)   128         rotation_net/rotation-2[2][0]    
__________________________________________________________________________________________________
rotation_net/rotation-0-gn-6 (G (None, 8, 8, 64)     128         rotation_net/rotation-0[3][0]    
__________________________________________________________________________________________________
lambda_4 (Lambda)               multiple             0           iterative_translation_subnet/iter
                                                                 iterative_translation_subnet/iter
                                                                 iterative_translation_subnet/iter
…
                                                                 rotation_net/rotation-init-predic
                                                                 lambda_3[11][0]                  
                                                                 rotation_net/rotation-init-predic
                                                                 lambda_3[14][0]                  
                                                                 rotation_net/rotation-init-predic
__________________________________________________________________________________________________
rotation_net/rotation-1-gn-6 (G (None, 8, 8, 64)     128         rotation_net/rotation-1[3][0]    
__________________________________________________________________________________________________
translation_net/translation-1-g (None, 4, 4, 64)     128         translation_net/translation-1[4][
__________________________________________________________________________________________________
box_net/box-2-bn-4 (BatchNormal (None, 32, 32, 64)   256         box_net/box-2[1][0]              
__________________________________________________________________________________________________
box_net/box-0-bn-5 (BatchNormal (None, 16, 16, 64)   256         box_net/box-0[2][0]              
__________________________________________________________________________________________________
iterative_rotation_subnet/itera multiple             6707        concatenate[0][0]                
                                                                 concatenate[1][0]                
                                                                 concatenate[2][0]                
                                                                 concatenate[3][0]                
                                                                 concatenate[4][0]                
__________________________________________________________________________________________________
iterative_rotation_subnet/itera (None, 64, 64, 64)   128         iterative_rotation_subnet/iterati
__________________________________________________________________________________________________
iterative_translation_subnet/it (None, 32, 32, 64)   128         iterative_translation_subnet/iter
__________________________________________________________________________________________________
iterative_translation_subnet/it (None, 16, 16, 64)   128         iterative_translation_subnet/iter
__________________________________________________________________________________________________
class_net/class-1-bn-5 (BatchNo (None, 16, 16, 64)   256         class_net/class-1[2][0]          
__________________________________________________________________________________________________
lambda_2 (Lambda)               multiple             0           iterative_rotation_subnet/iterati
                                                                 iterative_rotation_subnet/iterati
                                                                 iterative_rotation_subnet/iterati
…
                                                                 iterative_rotation_subnet/iterati
                                                                 iterative_rotation_subnet/iterati
                                                                 iterative_rotation_subnet/iterati
                                                                 iterative_rotation_subnet/iterati
                                                                 iterative_rotation_subnet/iterati
__________________________________________________________________________________________________
rotation_net/rotation-2-gn-6 (G (None, 8, 8, 64)     128         rotation_net/rotation-2[3][0]    
__________________________________________________________________________________________________
rotation_net/rotation-0-gn-7 (G (None, 4, 4, 64)     128         rotation_net/rotation-0[4][0]    
__________________________________________________________________________________________________
translation_net/translation-2-g (None, 4, 4, 64)     128         translation_net/translation-2[4][
__________________________________________________________________________________________________
box_net/box-1-bn-5 (BatchNormal (None, 16, 16, 64)   256         box_net/box-1[2][0]              
__________________________________________________________________________________________________
iterative_rotation_subnet/itera multiple             4736        lambda_2[0][0]                   
                                                                 lambda_2[2][0]                   
                                                                 lambda_2[4][0]                   
                                                                 lambda_2[6][0]                   
                                                                 lambda_2[8][0]                   
__________________________________________________________________________________________________
iterative_rotation_subnet/itera (None, 64, 64, 64)   128         iterative_rotation_subnet/iterati
__________________________________________________________________________________________________
iterative_rotation_subnet/itera (None, 32, 32, 64)   128         iterative_rotation_subnet/iterati
__________________________________________________________________________________________________
iterative_translation_subnet/it (None, 16, 16, 64)   128         iterative_translation_subnet/iter
__________________________________________________________________________________________________
iterative_translation_subnet/it (None, 8, 8, 64)     128         iterative_translation_subnet/iter
__________________________________________________________________________________________________
class_net/class-2-bn-5 (BatchNo (None, 16, 16, 64)   256         class_net/class-2[2][0]          
__________________________________________________________________________________________________
class_net/class-0-bn-6 (BatchNo (None, 8, 8, 64)     256         class_net/class-0[3][0]          
__________________________________________________________________________________________________
rotation_net/rotation-1-gn-7 (G (None, 4, 4, 64)     128         rotation_net/rotation-1[4][0]    
__________________________________________________________________________________________________
box_net/box-2-bn-5 (BatchNormal (None, 16, 16, 64)   256         box_net/box-2[2][0]              
__________________________________________________________________________________________________
box_net/box-0-bn-6 (BatchNormal (None, 8, 8, 64)     256         box_net/box-0[3][0]              
__________________________________________________________________________________________________
iterative_rotation_subnet/itera (None, 32, 32, 64)   128         iterative_rotation_subnet/iterati
__________________________________________________________________________________________________
iterative_rotation_subnet/itera (None, 16, 16, 64)   128         iterative_rotation_subnet/iterati
__________________________________________________________________________________________________
iterative_translation_subnet/it (None, 8, 8, 64)     128         iterative_translation_subnet/iter
__________________________________________________________________________________________________
iterative_translation_subnet/it (None, 4, 4, 64)     128         iterative_translation_subnet/iter
__________________________________________________________________________________________________
class_net/class-1-bn-6 (BatchNo (None, 8, 8, 64)     256         class_net/class-1[3][0]          
__________________________________________________________________________________________________
rotation_net/rotation-2-gn-7 (G (None, 4, 4, 64)     128         rotation_net/rotation-2[4][0]    
__________________________________________________________________________________________________
box_net/box-1-bn-6 (BatchNormal (None, 8, 8, 64)     256         box_net/box-1[3][0]              
__________________________________________________________________________________________________
iterative_rotation_subnet/itera (None, 16, 16, 64)   128         iterative_rotation_subnet/iterati
__________________________________________________________________________________________________
iterative_rotation_subnet/itera (None, 8, 8, 64)     128         iterative_rotation_subnet/iterati
__________________________________________________________________________________________________
iterative_translation_subnet/it (None, 4, 4, 64)     128         iterative_translation_subnet/iter
__________________________________________________________________________________________________
class_net/class-2-bn-6 (BatchNo (None, 8, 8, 64)     256         class_net/class-2[3][0]          
__________________________________________________________________________________________________
class_net/class-0-bn-7 (BatchNo (None, 4, 4, 64)     256         class_net/class-0[4][0]          
__________________________________________________________________________________________________
box_net/box-2-bn-6 (BatchNormal (None, 8, 8, 64)     256         box_net/box-2[3][0]              
__________________________________________________________________________________________________
box_net/box-0-bn-7 (BatchNormal (None, 4, 4, 64)     256         box_net/box-0[4][0]              
__________________________________________________________________________________________________
iterative_translation_subnet/it multiple             1746        lambda_4[1][0]                   
                                                                 lambda_4[3][0]                   
                                                                 lambda_4[5][0]                   
…
=================================================================
box_net/box-0 (SeparableConv multiple                  4736      
_________________________________________________________________
box_net/box-1 (SeparableConv multiple                  4736      
_________________________________________________________________
box_net/box-2 (SeparableConv multiple                  4736      
_________________________________________________________________
box_net/box-predict (Separab multiple                  2916      
_________________________________________________________________
box_net/box-0-bn-3 (BatchNor (None, 64, 64, 64)        256       
_________________________________________________________________
box_net/box-0-bn-4 (BatchNor (None, 32, 32, 64)        256       
_________________________________________________________________
box_net/box-0-bn-5 (BatchNor (None, 16, 16, 64)        256       
_________________________________________________________________
box_net/box-0-bn-6 (BatchNor (None, 8, 8, 64)          256       
_________________________________________________________________
box_net/box-0-bn-7 (BatchNor (None, 4, 4, 64)          256       
_________________________________________________________________
box_net/box-1-bn-3 (BatchNor (None, 64, 64, 64)        256       
_________________________________________________________________
box_net/box-1-bn-4 (BatchNor (None, 32, 32, 64)        256       
_________________________________________________________________
box_net/box-1-bn-5 (BatchNor (None, 16, 16, 64)        256       
_________________________________________________________________
box_net/box-1-bn-6 (BatchNor (None, 8, 8, 64)          256       
_________________________________________________________________
box_net/box-1-bn-7 (BatchNor (None, 4, 4, 64)          256       
_________________________________________________________________
box_net/box-2-bn-3 (BatchNor (None, 64, 64, 64)        256       
_________________________________________________________________
box_net/box-2-bn-4 (BatchNor (None, 32, 32, 64)        256       
_________________________________________________________________
box_net/box-2-bn-5 (BatchNor (None, 16, 16, 64)        256       
_________________________________________________________________
box_net/box-2-bn-6 (BatchNor (None, 8, 8, 64)          256       
_________________________________________________________________
box_net/box-2-bn-7 (BatchNor (None, 4, 4, 64)          256       
_________________________________________________________________
lambda (Lambda)              multiple                  0         
_________________________________________________________________
reshape (Reshape)            (None, None, 4)           0         
=================================================================
Total params: 20,964
Trainable params: 17,124
Non-trainable params: 3,840
…
=================================================================
rotation_net/rotation-0 (Sep multiple                  4736      
_________________________________________________________________
rotation_net/rotation-1 (Sep multiple                  4736      
_________________________________________________________________
rotation_net/rotation-2 (Sep multiple                  4736      
_________________________________________________________________
rotation_net/rotation-init-p multiple                  2331      
_________________________________________________________________
rotation_net/rotation-0-gn-3 (None, 64, 64, 64)        128       
_________________________________________________________________
rotation_net/rotation-0-gn-4 (None, 32, 32, 64)        128       
_________________________________________________________________
rotation_net/rotation-0-gn-5 (None, 16, 16, 64)        128       
_________________________________________________________________
rotation_net/rotation-0-gn-6 (None, 8, 8, 64)          128       
_________________________________________________________________
rotation_net/rotation-0-gn-7 (None, 4, 4, 64)          128       
_________________________________________________________________
rotation_net/rotation-1-gn-3 (None, 64, 64, 64)        128       
_________________________________________________________________
rotation_net/rotation-1-gn-4 (None, 32, 32, 64)        128       
_________________________________________________________________
rotation_net/rotation-1-gn-5 (None, 16, 16, 64)        128       
_________________________________________________________________
rotation_net/rotation-1-gn-6 (None, 8, 8, 64)          128       
_________________________________________________________________
rotation_net/rotation-1-gn-7 (None, 4, 4, 64)          128       
_________________________________________________________________
rotation_net/rotation-2-gn-3 (None, 64, 64, 64)        128       
_________________________________________________________________
rotation_net/rotation-2-gn-4 (None, 32, 32, 64)        128       
_________________________________________________________________
rotation_net/rotation-2-gn-5 (None, 16, 16, 64)        128       
_________________________________________________________________
rotation_net/rotation-2-gn-6 (None, 8, 8, 64)          128       
_________________________________________________________________
rotation_net/rotation-2-gn-7 (None, 4, 4, 64)          128       
_________________________________________________________________
iterative_rotation_subnet (I multiple                  15054     
_________________________________________________________________
lambda_3 (Lambda)            multiple                  0         
_________________________________________________________________
reshape_2 (Reshape)          (None, None, 3)           0         
…
